model/lunar_lander/agent_0/actor_params.pkl (torch, 47809 bytes, 6 tensors)

fc1.weight f4 [100, 8]
0	0xbecc3d3d	-0.3989047
1	0xbeb051b8	-0.34437346
2	0x3e669dc4	0.2252112
3	0xbe99d827	-0.30047724
4	0x3e7244e6	0.23659095
5	0x3edf1d61	0.43577102
6	0xbbf7b4c4	-0.0075593907
7	0xbef83fa3	-0.4848605
8	0x3e173cfc	0.14769357
9	0xbe53024d	-0.20606346
10	0xbe8b2cdc	-0.27182662
11	0x3eb0dbb7	0.3454263
12	0xbee88b82	-0.45418936
13	0x3e42d9bc	0.19028372
14	0x3eac1d82	0.33616263
15	0x3e83ee9a	0.25767976
16	0x3e1b86f3	0.15188198
17	0x3e701032	0.23443678
18	0xbf1fe73a	-0.624622
19	0xbdbf7c42	-0.09349872
20	0xbe4abe89	-0.19799246
21	0xbf0a7a1b	-0.5409257
22	0xbdac3c20	-0.084099054
23	0x3ede0699	0.4336441
24	0x3f082f25	0.53196937
25	0xbde6b573	-0.112650774
26	0x3e8bc173	0.27296028
27	0xbefd323f	-0.49452397
28	0xbee3add1	-0.4446855
29	0xbe56ad92	-0.2096465
30	0xbdd6d881	-0.104905136
31	0x3e9bb9a5	0.30415073
32	0xbf242c8a	-0.6413046
33	0x3ebcf6c8	0.3690703
34	0x3e393f8e	0.1809065
35	0x3f28b104	0.65895104
36	0xbf4ae03d	-0.7924841
37	0xbd9f7aea	-0.07787116
38	0xbcf974e8	-0.030451253
39	0xbec6a4ad	-0.38797513
40	0xbcdc1331	-0.02686462
41	0xbced53b4	-0.028970577
42	0xbf27c7d5	-0.65539294
43	0x3e80704e	0.25085682
44	0x3e713014	0.23553497
45	0x3db45dd4	0.08806959
46	0x3e8559e3	0.2604514
47	0xbcd156de	-0.025554117
48	0xbebdbec6	-0.3705961
49	0x3e0038f4	0.12521726
50	0x3e45f939	0.19333352
51	0x3ef0c08f	0.4702191
52	0x3f09313c	0.5359075
53	0x3f127604	0.5721133
54	0x3db5987d	0.088669755
55	0x3d0a3699	0.033743475
56	0x3d5241a4	0.05133213
57	0x3e86cc39	0.26327685
58	0x3e6cbceb	0.23118941
59	0x3f0a904f	0.5412645
60	0xbd846ddc	-0.064662665
61	0xbf2a3c31	-0.66498095
62	0x3dedf207	0.11618429
63	0x3f05142d	0.5198391
64	0x3f655b34	0.8959229
65	0x3e43cd6d	0.19121332
66	0x3e34023a	0.17578974
67	0xbee99d4d	-0.45627823
68	0xbecaa90f	-0.39582106
69	0x3dbeecdb	0.0932252
70	0xbeafe8ce	-0.34357303
71	0x3e9b386f	0.30316493
72	0xbe8d261d	-0.2756814
73	0x3de41f25	0.11138753
74	0x3de5abe2	0.11214425
75	0xbe156313	-0.14588575
76	0x3e59d53d	0.2127275
77	0xbeab9fac	-0.33520257
78	0x3e0ebb3a	0.13938609
79	0xbce413e9	-0.027841525
80	0x3f2c0ef6	0.6721033
81	0xbdf3306f	-0.11874472
82	0xbf230af1	-0.6368857
83	0xbe98bf94	-0.29833663
84	0x3f6103ee	0.8789662
85	0xbed1e8af	-0.40997836
86	0x3d0085da	0.03137765
87	0x3e7337ac	0.23751706
88	0xbf0b1b7d	-0.5433882
89	0xbeb6ef0f	-0.35729262
90	0x3cc293f4	0.02375219
91	0xbeede195	-0.46461168
92	0x3ed9718a	0.42469436
93	0x3e68375c	0.22677368
94	0x3eeb3858	0.45941424
95	0x3ee18433	0.44046172
96	0xbea7d0a4	-0.32776368
97	0xbd18c522	-0.037297376
98	0xbe43a916	-0.1910747
99	0x3e28ff6c	0.16503686
100	0xbe012276	-0.12610802
101	0xbe1e3eda	-0.15453663
102	0xbebf6d79	-0.37388209
103	0x3ed1b96e	0.40961784
104	0x3f71c4e5	0.9444106
105	0xbe420bd0	-0.18949819
106	0x3ed7c445	0.4214193
107	0xbea5fe3e	-0.32420534
108	0xbf5413b9	-0.82842594
109	0xbe198d11	-0.14995219
110	0x3eb701ef	0.35743663
111	0xbea7cb7d	-0.32772437
112	0x3e0b2bcb	0.13590924
113	0xbe090b60	-0.13383245
114	0xbeed15dd	-0.46305743
115	0xbea58b24	-0.32332718
116	0x3d2207c2	0.03955818
117	0x3ee326bc	0.4436549
118	0x3e9595cc	0.29215848
119	0x3e506bfd	0.20353694
120	0x3f26a7a6	0.6509956
121	0xbde73440	-0.11289263
122	0xbec56b43	-0.38558397
123	0x3f0153de	0.50518596
124	0x3f29d441	0.663395
125	0xbf2e4f73	-0.6808998
126	0x3ddf5cb2	0.10906352
127	0x3ec0e316	0.37673253
128	0xbe26e412	-0.1629794
129	0xbf57888a	-0.8419272
130	0xbe536e6b	-0.2064759
131	0xbeaca1d0	-0.33717203
132	0xbcaf89e0	-0.021428049
133	0xbf5f678c	-0.87267375
134	0x3e86d30c	0.2633289
135	0x3d84792f	0.064684264
136	0x3e9f61db	0.31129345
137	0xbe72e6cf	-0.23720859
138	0x3ef7fa07	0.48432943
139	0xbe6028f1	-0.21890618
140	0xbf14bd78	-0.58101606
141	0xbe8a7f61	-0.27050307
142	0x3ec74cc8	0.38925767
143	0x3e684417	0.22682224
144	0x3d2ea693	0.042639326
145	0xbe871369	-0.26381996
146	0x3f7cd5d8	0.987638
147	0x3eee6bbe	0.46566576
148	0x3f9d6a76	1.2298114
149	0x3efcb803	0.4935914
150	0x3efb95de	0.49137777
151	0x3e1dee04	0.15422827
152	0xbeca235b	-0.394801
153	0x3e427dd2	0.18993309
154	0xbe1e908a	-0.15484825
155	0xbdc999a9	-0.098437615
156	0xbeb618ea	-0.35565883
157	0xbe1d1fed	-0.1534421
158	0x3f0b2ddd	0.54366857
159	0x3eb46378	0.3523214
160	0xbdc23fa0	-0.09484792
161	0x3ed04e92	0.40684944
162	0x3c7ff7c3	0.015623036
163	0xbf07c1f2	-0.5303031
164	0xbc3cc26e	-0.011520965
165	0x3ee02902	0.43781286
166	0xbe07a572	-0.13246706
167	0x3cae0fa6	0.021247696
168	0xbe82678a	-0.2546962
169	0xbc58432d	-0.01319961
170	0xbbc6fef1	-0.006072872
171	0xbe9f8f92	-0.31164223
172	0x3f90a1a1	1.1299325
173	0x3ddf53d0	0.10904658
174	0xbe717de5	-0.23583181
175	0x3e6bbe29	0.23021759
176	0xbe1a189d	-0.15048452
177	0xbd922384	-0.0713568
178	0x3f0c3e06	0.5478214
179	0xbeb41fbf	-0.3518047
180	0xbf23d424	-0.63995576
181	0xbe7dfa4a	-0.24802509
182	0xbe924bc9	-0.28573444
183	0xbe2a25ec	-0.16616029
184	0xbe996cb8	-0.29965758
185	0x3cd4646e	0.025926795
186	0xbd4e40b1	-0.050354663
187	0xbe9a947c	-0.3019141
188	0x3f195272	0.59891427
189	0x3eb4478b	0.35210833
190	0x3eb5ce96	0.35509175
191	0xbf1b158b	-0.60579747
192	0x3f809bd4	1.0047555
193	0x3e62a39c	0.22132725
194	0xbe975fd2	-0.29565293
195	0xbf1a8fdd	-0.6037577
196	0x3ea194e6	0.31558913
197	0xbe85f329	-0.2616208
198	0x3e4900b7	0.19629179
199	0x3eab7416	0.33487004
200	0x3d2539a8	0.04033819
201	0xbd9282e0	-0.07153869
202	0xbdc51cfe	-0.096246704
203	0xbf39c91b	-0.7257249
204	0x3e850858	0.25982928
205	0x3e1530f2	0.14569452
206	0x3ee45527	0.44596216
207	0x3bdbba25	0.0067055398
208	0x3e679cd7	0.22618423
209	0x3d73af85	0.05949356
210	0xbf105242	-0.56375515
211	0xbee1754a	-0.44034797
212	0xbcf3d344	-0.029763825
213	0x3c94793b	0.018124213
214	0xbe3b163f	-0.18270205
215	0x3e88ad5d	0.26694766
216	0x3ea08bd2	0.31356674
217	0x3c9bdd29	0.019026356
218	0xbdf497e3	-0.119430326
219	0xbd0a3daa	-0.033750214
220	0xbe1d9f8a	-0.1539289
221	0xbef32e06	-0.4749605
222	0x3ecc24d8	0.3987186
223	0x3e76e53e	0.24110886
224	0x3c30e4c6	0.010796731
225	0x3daa6046	0.08319144
226	0x3df359c3	0.11882355
227	0x3dccbd4e	0.099970445
228	0xbf1576a9	-0.58384186
229	0xbc7c495c	-0.01539835
230	0xbf07604f	-0.5288133
231	0x3e4e51de	0.20148417
232	0xbe45ab19	-0.1930355
233	0x3d687622	0.056753285
234	0xbe66cb09	-0.2253839
235	0xbdc63d0c	-0.096796125
236	0xbdf6bca9	-0.12047703
237	0xbe308a2f	-0.17240213
238	0xbda2694f	-0.07930242
239	0x3d84d417	0.064857654
240	0xbe90eb98	-0.28304744
241	0xbdd548cf	-0.10414278
242	0xbe0dc74c	-0.13845557
243	0xbef2d425	-0.47427478
244	0x3f3e57c6	0.7435268
245	0x3ebb3df4	0.36570704
246	0x3edfc16b	0.43702254
247	0x3e731b70	0.23740935
248	0xbe4f258a	-0.20229164
249	0x3d9b6264	0.07587126
250	0xbc9c8b40	-0.019109368
251	0xbe90219a	-0.28150636
252	0x3e28d865	0.16488798
253	0xbece900c	-0.40344274
254	0xbe833067	-0.25622866
255	0x3ec87556	0.3915202

fc1.bias f4 [100]
0	0xbebbc1ea	-0.36671382
1	0x3f095e02	0.5365907
2	0xbdcc4d61	-0.09975696
3	0xbe3bd666	-0.18343505
4	0xbef14a7b	-0.47127137
5	0xbe66c682	-0.22536662
6	0x3dd754f6	0.10514252
7	0x3f158bc7	0.5841641
8	0x3f4394f1	0.7639914
9	0x3e805505	0.25064865
10	0x3f21d39f	0.63213533
11	0xbda25255	-0.0792586
12	0xbe8c2bc5	-0.27377144
13	0xbe9b5450	-0.30337763
14	0xbea77e4c	-0.32713544
15	0x3ed043f8	0.40676856
16	0xbe93a390	-0.28835726
17	0xbe826bb3	-0.25472793
18	0xbe2d2874	-0.16909963
19	0xbe9d43e7	-0.30715868
20	0x3f252e03	0.64523333
21	0x3ec5f191	0.38660863
22	0xbf03e4c5	-0.5152095
23	0xbe863649	-0.2621329
24	0x3f000bf9	0.5001827
25	0xbe29071e	-0.16506621
26	0x3f08a9ec	0.5338428
27	0x3d5e721d	0.054308046
28	0xbe09a0ed	-0.13440295
29	0x3e39000d	0.18066426
30	0xbe8ab71a	-0.2709282
31	0x3e1f4190	0.15552354
32	0xbe04af9f	-0.12957619
33	0x3ee0457e	0.43803018
34	0x3f254b15	0.6456769
35	0x3de44b3b	0.111471616
36	0xbd492e47	-0.0491164
37	0x3db58c04	0.088645965
38	0x3eedb28f	0.46425292
39	0x3f11a0ff	0.56886286
40	0xbeb88e88	-0.36046243
41	0x3f21dda8	0.63228846
42	0xbc1ff76e	-0.009763582
43	0x3ee375e5	0.44425884
44	0x3ed90a9c	0.42390907
45	0x3e9d25dd	0.3069295
46	0xbe167048	-0.1469127
47	0x3e07e3ff	0.13270567
48	0x3ef2e192	0.47437721
49	0x3e38dff7	0.18054186
50	0x3e800953	0.25007114
51	0xbe811168	-0.25208592
52	0xbdabb5e6	-0.08384304
53	0x3f1fb67a	0.6238781
54	0x3e56f67f	0.20992468
55	0x3e27ab31	0.16373898
56	0xbec374c5	-0.38175026
57	0x3de5ad99	0.11214752
58	0x3f0804b2	0.53132164
59	0x3ed517d0	0.4161973
60	0xbd7497dd	-0.05971514
61	0xbe9b50a7	-0.3033497
62	0xbe35785c	-0.17721695
63	0xbd48fdf4	-0.049070314
64	0xbcadbc87	-0.02120806
65	0xbe9b1176	-0.3028676
66	0x3f04f70b	0.5193946
67	0xbe84eedb	-0.25963482
68	0x3e122ff8	0.14276111
69	0xbeba1402	-0.3634339
70	0xbf1fb2be	-0.62382114
71	0x3ed36d43	0.41294298
72	0xbe8358b9	-0.25653628
73	0xbdf6dd27	-0.120539
74	0xbcb07579	-0.02154039
75	0x3e98317b	0.2972525
76	0xbed86b93	-0.42269573
77	0x3ec45818	0.3834846
78	0x3e2e9b16	0.17051348
79	0x3eb5e79e	0.35528272
80	0x3f55b7bc	0.8348348
81	0xbe942df0	-0.28941298
82	0xbb7bbea6	-0.0038413196
83	0xbccf86bb	-0.0253328
84	0x3e5cfc13	0.21580534
85	0x3f155fd9	0.58349377
86	0x3ebf57fe	0.3737182
87	0xbe1431f7	-0.14472185
88	0xbec94c4a	-0.39316016
89	0x3ee27fa2	0.44238
90	0xbd8b574f	-0.06803762
91	0xbeb55ac5	-0.35420814
92	0x3f3a43b8	0.7275958
93	0x3e40a123	0.18811469
94	0x3f25f615	0.64828616
95	0x3f4055a4	0.7513068
96	0xbe338ba5	-0.17533739
97	0xbefbf344	-0.49209034
98	0x3e83c16e	0.25733513
99	0xbd9f92e7	-0.07791691

fc2.weight f4 [100, 100]
0	0x3cfe8c3a	0.031072725
1	0xbdaefb89	-0.0854407
2	0xbc671133	-0.014103222
3	0xbd115506	-0.035481475
4	0xbda6d599	-0.08146209
5	0xbda8c490	-0.08240616
6	0xbd3af811	-0.04564673
7	0xbd26ffc9	-0.04077128
8	0x3d31888c	0.043343112
9	0x3d283bf5	0.041072804
10	0xbd89f96c	-0.067370266
11	0xbd116d04	-0.035504356
12	0x3da84949	0.08217103
13	0xbda5ccd4	-0.080957085
14	0xbcb68ac2	-0.022282962
15	0x3ce9f112	0.028557334
16	0xbdc46f05	-0.09591488
17	0xbdbce5e0	-0.09223533
18	0x3d26abe7	0.040691283
19	0xbd495d5e	-0.049161308
20	0x3d9cd946	0.07658629
21	0x3d807030	0.06271398
22	0x3daa000c	0.0830079
23	0xbd954bd8	-0.07289857
24	0xbd2f5e2a	-0.04281441
25	0x3d54e3f7	0.051975217
26	0xbdacd18b	-0.08438405
27	0x3b2827f1	0.0025658573
28	0x3d8a70f4	0.06759825
29	0x3ca26d05	0.019827375
30	0x3d370bec	0.044689104
31	0xbd49d227	-0.049272683
32	0x3b1737a5	0.0023073938
33	0xbd9838b1	-0.07432688
34	0x3ccd054e	0.025026944
35	0xba44d69a	-0.0007508785
36	0x3d83dd22	0.06438662
37	0xbd095d3c	-0.03353618
38	0xbd807133	-0.06271591
39	0x3d9978f6	0.074937746
40	0x3d9e3c28	0.07726318
41	0x3d2d70dd	0.042343963
42	0xbd820716	-0.06349008
43	0xbd69813b	-0.05700801
44	0xbcd6fa66	-0.026242446
45	0xbdb92682	-0.09040548
46	0x3cdb1247	0.026742114
47	0x3d848b7a	0.064719155
48	0x3d99f00f	0.07516491
49	0xbd256f43	-0.04038931
50	0xbd96803c	-0.073486775
51	0xbdb7018a	-0.089358404
52	0xbc0e5727	-0.008687771
53	0x3dbb4f9e	0.09146045
54	0xbcb3d1ae	-0.021950569
55	0x3da6afc6	0.08138995
56	0xbca9f37c	-0.020745985
57	0xbd9e1f13	-0.07720771
58	0x3cc32f95	0.0238264
59	0xbd17f37d	-0.037097443
60	0xbd389fbb	-0.045074206
61	0x3dc20ea3	0.09475448
62	0xbd86bb12	-0.065786496
63	0xbdc81ccd	-0.09771118
64	0x3dba13be	0.09085797
65	0xbc4490b9	-0.011997395
66	0xbc7e16c0	-0.015508354
67	0xbd54e6d1	-0.051977936
68	0xbd574b54	-0.052562073
69	0xbd8cda8b	-0.06877621
70	0xba61f542	-0.0008619615
71	0xbd450423	-0.04809965
72	0x3dcaedc1	0.09908629
73	0xbc280cd4	-0.010256965
74	0x3c822f01	0.015891554
75	0xbd8a689b	-0.06758233
76	0x3a3608e2	0.00069440727
77	0xbcc6db2e	-0.024274435
78	0xbb3959ca	-0.0028282278
79	0xbd70b8f9	-0.058770154
80	0xbd09c3bf	-0.033633944
81	0xbaabc667	-0.0013105393
82	0x3d60dd3c	0.054898486
83	0xbc8b9403	-0.01703835
84	0x3d957731	0.072981246
85	0x3da7da14	0.08195892
86	0xbdaa9784	-0.083296806
87	0xbbb7c402	-0.0056080827
88	0xbd269d6b	-0.04067747
89	0x3da66df1	0.081264384
90	0xbd589970	-0.052880704
91	0x3c998236	0.018738847
92	0xbdbf5fb6	-0.09344427
93	0xbdc19bb1	-0.09453524
94	0x3d90dc78	0.07073301
95	0xbdd94b3f	-0.10610055
96	0x3c613479	0.013745421
97	0x3cd1151a	0.025522757
98	0xb909b1c2	-0.00013131558
99	0xbd7aa2b3	-0.06119032
100	0x3e8ebb4c	0.2787727
101	0xbd184afd	-0.03718089
102	0x3e5d1ff1	0.21594216
103	0x3e8f27f2	0.27960163
104	0xbea13ae9	-0.31490257
105	0x3ed6efc5	0.41979805
106	0x3e9839f9	0.2973173
107	0xbe0f6428	-0.1400305
108	0x3cc46814	0.02397541
109	0x3e3b01ff	0.1826248
110	0x3d12dc5c	0.035854682
111	0x3e6f4dfa	0.2336959
112	0x3d5850cd	0.052811433
113	0x3ec9b44d	0.3939537
114	0x3e1fd704	0.15609366
115	0xbde9614c	-0.11395511
116	0xbf0292a6	-0.5100502
117	0x3ea2f0a3	0.31824216
118	0xbf09a323	-0.5376455
119	0x3e91f772	0.28509098
120	0xbd93a8ef	-0.07209956
121	0x3e937ed4	0.288077
122	0x3f3fabee	0.7487172
123	0x3ecf5ddd	0.405013
124	0x3beb86d0	0.0071877018
125	0x3e67fec0	0.22655773
126	0xbd4365ab	-0.04770438
127	0x3e2d331b	0.16914026
128	0x3ea9133e	0.33022493
129	0x3d80d341	0.062902935
130	0x3e850f36	0.25988168
131	0x3de689c0	0.112567425
132	0x3e8f3531	0.2797027
133	0x3ddce282	0.107853904
134	0xbe41d38d	-0.18928356
135	0xbeff99bf	-0.49921986
136	0x3e211709	0.15731443
137	0x3cdc16f2	0.02686641
138	0x3de6f213	0.11276641
139	0x3d36ef21	0.044661645
140	0xbee50482	-0.44730002
141	0xbd6fe564	-0.058568373
142	0x3eb71fb3	0.35766372
143	0xbefa07b1	-0.48833993
144	0xbe963140	-0.2933445
145	0x3e46ad89	0.19402136
146	0x3e84a90d	0.25910226
147	0x3e2d3540	0.16914845
148	0x3d844655	0.06458727
149	0x3d74589b	0.059654813
150	0x3e815a63	0.25264272
151	0x3e4f91d2	0.2027047
152	0xbf1d6c77	-0.6149363
153	0xbe513125	-0.20428903
154	0x3ea4365e	0.3207273
155	0x3ebb2763	0.36553487
156	0x3e935a5c	0.28779876
157	0x3ed9f12c	0.42566812
158	0x3ccda99d	0.025105292
159	0x3d811071	0.06301964
160	0xbf35d129	-0.7102228
161	0xbca94ded	-0.02066704
162	0x3e9a87be	0.30181688
163	0xbf2f9c9b	-0.68598336
164	0x3de032a3	0.10947158
165	0x3e596002	0.2122803
166	0x3e5dede9	0.21672787
167	0x3ef2112f	0.47278735
168	0xbd4ad321	-0.049517754
169	0x3f1a9f93	0.6039974
170	0x3f7ce556	0.9878744
171	0x3e023dc8	0.1271888
172	0x3f0b1b24	0.5433829
173	0x3e8c47e1	0.2739859
174	0x3e27abac	0.16374081
175	0xbed1e03c	-0.4099139
176	0x3ebfe442	0.37478834
177	0x3cbbebad	0.022939527
178	0x3e2223ac	0.1583392
179	0xbe8e7305	-0.27822128
180	0xbd035170	-0.032060087
181	0x3f2ea28e	0.6821679
182	0x3ee697f8	0.45037818
183	0x3ecde381	0.40212634
184	0x3ed7f091	0.42175725
185	0x3dc68882	0.096940055
186	0x3e0d6cbe	0.13811013
187	0x3f61fdaf	0.88277715
188	0x3e43868b	0.19094293
189	0x3e68591a	0.2269024
190	0x3f1f203c	0.6215856
191	0x3f1608b9	0.5860706
192	0x3c65da0a	0.014029035
193	0x3e405a32	0.18784407
194	0xbd80479c	-0.062636584
195	0xbe9559a0	-0.2916994
196	0x3e11bb8d	0.14231701
197	0x3e9e04e7	0.30863115
198	0x3ee453e5	0.44595256
199	0x3f6ba86b	0.9205386
200	0x3e33dd9d	0.17565008
201	0x3c106506	0.008813148
202	0x3e85818e	0.26075405
203	0x3e2c0799	0.16799773
204	0xbf16af28	-0.5886102
205	0x3e80f5f8	0.2518766
206	0x3e4eb158	0.20184839
207	0xbe063f6c	-0.13110131
208	0xbd72c71b	-0.059271913
209	0x3ea10e4c	0.3145622
210	0xbcabeb4e	-0.020986225
211	0x3e7f08bf	0.2490568
212	0x3e72cc82	0.23710826
213	0x3f242118	0.64113
214	0x3e20c338	0.1569947
215	0xbe0db482	-0.1383839
216	0xbef04268	-0.46925664
217	0x3eee7fc0	0.4658184
218	0xbf4319ea	-0.76211417
219	0x3e84b92e	0.2592253
220	0xbd9b6576	-0.075877115
221	0x3eba1750	0.3634591
222	0x3f3d7306	0.74003637
223	0x3e8c11bc	0.2735728
224	0x3dcc64da	0.099801734
225	0x3eb9e435	0.3630692
226	0xbd83b8c2	-0.06431724
227	0x3dea923c	0.11453673
228	0x3e342335	0.17591555
229	0x3e6b9e15	0.23009522
230	0x3eb6635f	0.3562269
231	0x3dfb4c21	0.1227038
232	0x3e984773	0.2974201
233	0x3dd96995	0.10615841
234	0x3d84d665	0.06486205
235	0xbf12e095	-0.57373935
236	0x3e56fb2a	0.20994249
237	0x3def6026	0.11688261
238	0x3e7e737d	0.24848743
239	0xbd658f7f	-0.05604505
240	0xbec9f092	-0.39441353
241	0x3d2b38d4	0.041802242
242	0x3eeb0272	0.45900303
243	0xbf294585	-0.66121703
244	0xbeaa29ad	-0.3323492
245	0x3dffbef2	0.12487592
246	0x3ecc8761	0.39947036
247	0x3e1694c6	0.1470519
248	0x3d936bec	0.07198319
249	0x3e6869d3	0.22696619
250	0x3e78e75b	0.24307005
251	0x3e8e9da2	0.2785464
252	0xbebc9acc	-0.3683685
253	0xbe87763f	-0.26457402
254	0x3db04b3c	0.086081
255	0x3e6edac3	0.23325638

fc2.bias f4 [100]
0	0xbd0320b6	-0.032013617
1	0xbbc44c13	-0.005990514
2	0xbdb53213	-0.088474415
3	0xbe16c568	-0.14723742
4	0xbde98057	-0.11401432
5	0x3ca94d38	0.020666704
6	0x3da2043d	0.07910965
7	0x3e01bf67	0.1267067
8	0x3f218607	0.63095134
9	0x3e6b4f93	0.22979574
10	0x3f015a39	0.50528294
11	0xbbb957f9	-0.005656239
12	0xbdefb892	-0.11705126
13	0xbd9246f9	-0.07142443
14	0xbe441dd7	-0.19152008
15	0xbe0efd69	-0.13963856
16	0xbdc0001f	-0.09375023
17	0x3d7c3402	0.061573036
18	0x3c6f2351	0.014595822
19	0x3e3fe00b	0.1873781
20	0x3e9e45b9	0.3091257
21	0xbe218142	-0.15771964
22	0xbe03d95d	-0.12875886
23	0x3e4c1ce7	0.199329
24	0x3c0b61ee	0.008507235
25	0xbdbd6e8f	-0.09249603
26	0xbcc37f44	-0.023864396
27	0x3e1b8a86	0.15189561
28	0xbddc4ed6	-0.10757224
29	0x3cc7ecd7	0.024404926
30	0xbac21a63	-0.0014808889
31	0x3f294420	0.66119576
32	0x3d11da3c	0.035608515
33	0xbdb88533	-0.09009781
34	0xbca3def7	-0.020003779
35	0x3d3a7a53	0.045526814
36	0xbd911e5a	-0.07085867
37	0x3caacb82	0.020848993
38	0xbdbe600b	-0.092956625
39	0x3ee05321	0.43813422
40	0xbbd55d36	-0.0065113558
41	0xbddaeb9a	-0.10689469
42	0x3e0e5499	0.13899459
43	0xbdd6ba16	-0.10484712
44	0x3cbefaf5	0.023313025
45	0xbc77a04c	-0.015113901
46	0x3edeb8db	0.4350041
47	0xbb52562e	-0.0032094824
48	0x3d2f7729	0.04283825
49	0x3eb292d7	0.34877655
50	0x3d79d69f	0.060995694
51	0xbda825ac	-0.0821031
52	0xbd713ac3	-0.05889393
53	0xbe142253	-0.14466219
54	0xbdca6e41	-0.098843105
55	0xbd538124	-0.05163683
56	0xbd3557c7	-0.044273164
57	0x3d015753	0.03157742
58	0x3f45af70	0.7722082
59	0xbd1615f5	-0.036642034
60	0xbd9f5a42	-0.07780887
61	0x3d0e0a93	0.034678053
62	0x3dfbbdd9	0.1229207
63	0xbd7a76b8	-0.061148375
64	0x3ed32193	0.41236553
65	0x3e1600d3	0.14648752
66	0xbe07e054	-0.13269168
67	0xbdd306ba	-0.10304017
68	0x3eb08519	0.34476545
69	0xbd083a2a	-0.033258595
70	0xbcc21caa	-0.023695309
71	0x3f019163	0.5061247
72	0xbe5dccd7	-0.21660171
73	0xbdb8cc2a	-0.09023316
74	0xbd3018f6	-0.042992555
75	0xbcd28f49	-0.02570309
76	0xbe23c3f5	-0.1599272
77	0x3f209889	0.6273275
78	0x3eaf8c27	0.34286615
79	0xbc28d3ad	-0.010304374
80	0xbddb4bb0	-0.107077956
81	0xbdb7cd7b	-0.08974739
82	0x3de309d1	0.11085857
83	0xbdc0515e	-0.093905196
84	0xbd36dc0b	-0.044643443
85	0xbd5c990f	-0.053856906
86	0xbcef19c5	-0.029187093
87	0xbdb92a6b	-0.09041294
88	0xbdb1a1ce	-0.0867344
89	0xbbb54267	-0.0055315974
90	0x3cc364c8	0.023851767
91	0xbe14710a	-0.14496246
92	0x3d429c5d	0.0475124
93	0x3d77a201	0.060457233
94	0x3f08b75b	0.5340478
95	0x3d0a64d4	0.033787563
96	0xbd3b2de5	-0.045698065
97	0xbdcb3727	-0.09922629
98	0xbd780842	-0.06055475
99	0xbe2674a6	-0.16255435

fc3.weight f4 [4, 100]
0	0x3d933513	0.071878575
1	0xbf0f7d3e	-0.5605048
2	0xbee7a11e	-0.4524011
3	0xbebe6aec	-0.3719095
4	0xbee5952e	-0.44840378
5	0xbee6755c	-0.45011413
6	0xbf7253ea	-0.9465929
7	0xbf71bd7c	-0.94429755
8	0x3f5fbbb7	0.87395805
9	0x3faad3ec	1.3345923
10	0x3f435e1a	0.7631546
11	0xbf6ddb22	-0.92912495
12	0xbe9421d6	-0.28932065
13	0xbf96b0fc	-1.1772761
14	0xbe9e412e	-0.30909103
15	0xbee665b7	-0.44999477
16	0x3d1d8fe3	0.0384673
17	0x3e38ed3f	0.18059252
18	0x3c90ef9a	0.017692376
19	0x3f309468	0.6897645
20	0xbf61fa49	-0.8827253
21	0xbf77647d	-0.9663771
22	0xbf411a9f	-0.75431246
23	0x3f8c6afe	1.0970151
24	0xbf6e8144	-0.93165994
25	0xbeb55552	-0.35416657
26	0xbed69894	-0.41913283
27	0xbf26d3fc	-0.6516721
28	0xbed0ff5f	-0.40819833
29	0xbf403ce5	-0.7509292
30	0xbfaf1a4f	-1.3679904
31	0x3face6a4	1.3507886
32	0xbf0d3faf	-0.551753
33	0x3c5d8540	0.013520539
34	0xbf9f6915	-1.2453943
35	0xbee50063	-0.44726858
36	0x3d5719c0	0.05251479
37	0xbf6b0986	-0.91811407
38	0xbec7d462	-0.39029223
39	0x3f63e044	0.8901408
40	0xbed471ea	-0.4149316
41	0xbeaad0c3	-0.33362398
42	0xbf1b8357	-0.60747284
43	0xbd5a4767	-0.05329075
44	0xbf80074a	-1.0002224
45	0xbf167ea7	-0.58787006
46	0x3f662950	0.8990679
47	0xbec63d56	-0.3871867
48	0xbf27859f	-0.65438265
49	0xbd052df8	-0.032514542
50	0xbfa78389	-1.3087016
51	0xbee7ffc0	-0.4531231
52	0xbf7e4eee	-0.9933919
53	0x3e14938a	0.14509407
54	0xbf87c649	-1.0607387
55	0xbedb6a61	-0.42854598
56	0xbf565ca4	-0.8373511
57	0x3e6d7590	0.23189378
58	0x3f971c01	1.1805421
59	0xbf4a2465	-0.78961784
60	0xbf0dc6dd	-0.55381566
61	0x3e87dd63	0.26536092
62	0xbe55583b	-0.20834439
63	0xbec347d4	-0.38140738
64	0x3f4a22b7	0.7895922
65	0xbf8233e3	-1.0172085
66	0xbf102d3b	-0.56319016
67	0xbec4c398	-0.38430476
68	0x40089713	2.1342208
69	0xbecdcff6	-0.40197724
70	0xbed6836e	-0.41897148
71	0x3fad3953	1.3533119
72	0xbeb8e21e	-0.36110014
73	0xbeb45bdd	-0.35226336
74	0xbf1ccede	-0.61253154
75	0xbed73d1b	-0.42038807
76	0xbecab56d	-0.39591542
77	0x3f6b2379	0.91851
78	0x3ecd5b32	0.4010864
79	0xbf060be8	-0.5236192
80	0xbeb92d31	-0.3616729
81	0xbed31116	-0.41223973
82	0x3f30c7c0	0.69054794
83	0xbec243a5	-0.37942234
84	0xbf691729	-0.91050965
85	0xbec5134f	-0.38491294
86	0xbef299ec	-0.47383058
87	0xbeb36fdc	-0.3504628
88	0x3d8c4008	0.068481505
89	0xbebf3e7f	-0.37352368
90	0xbf547ff5	-0.83007747
91	0xbf06bc2f	-0.52630895
92	0xbf8a1825	-1.0788618
93	0x3f8383a4	1.0274549
94	0x3f0cfb45	0.55070907
95	0xbea0bb99	-0.31393126
96	0xbf0ab699	-0.5418487
97	0xbd867d7a	-0.065669015
98	0xbee0fa12	-0.43940789
99	0xbec0c363	-0.37649068
100	0xbd13ef9e	-0.03611719
101	0xbec5acf2	-0.3860851
102	0xbf162d27	-0.58662647
103	0xbeee56e4	-0.46550667
104	0xbed6ed86	-0.4197809
105	0xbe5e9af9	-0.21738805
106	0xbf0f37a3	-0.5594427
107	0xbf8d0bfd	-1.1019284
108	0x3faab154	1.3335366
109	0x3fb8a70c	1.4425979
110	0x3f9a0acc	1.2034545
111	0xbee41f27	-0.44555017
112	0xbefedb2d	-0.49776593
113	0xbf53f442	-0.8279458
114	0xbeb0d5f3	-0.3453823
115	0xbf103b54	-0.5634053
116	0x3c32c473	0.010911095
117	0x3d2352ba	0.039873816
118	0x3d7c707d	0.061630715
119	0x3f2e229c	0.6802156
120	0x3f459549	0.77180916
121	0xbef4d301	-0.47817233
122	0xbf198147	-0.59962887
123	0x3f2f22db	0.6841256
124	0xbf6da4de	-0.9282969
125	0xbed6ddc3	-0.41966066
126	0xbec37ec3	-0.3818265
127	0xbf1683ac	-0.58794665
128	0xbf317a38	-0.69327116
129	0xbebb2500	-0.36551666
130	0xbf7ed090	-0.9953699
131	0x3f884001	1.0644532
132	0xbf0aff4b	-0.54295796
133	0xbd98a997	-0.07454222
134	0xbfad5fa3	-1.3544811
135	0xbf30b156	-0.69020593
136	0xbd81844f	-0.06324064
137	0xbf656d6f	-0.8962011
138	0xbf4c819c	-0.7988527
139	0x3f43da9d	0.7650545
140	0xbecaec32	-0.39633328
141	0xbe9f55a4	-0.31120026
142	0xbfce0031	-1.6093808
143	0x3dafa375	0.08576099
144	0xbf062973	-0.52406996
145	0xbebd6139	-0.36988238
146	0x3f46e36a	0.77690756
147	0xbf37b356	-0.7175802
148	0xbfa64b92	-1.2991812
149	0x3e6ba598	0.23012388
150	0x3fcdcfd9	1.6079055
151	0xbeeeb584	-0.4662286
152	0xbf160528	-0.5860162
153	0xbe953070	-0.29138517
154	0xbfa088fa	-1.2541802
155	0xbeb361ce	-0.35035557
156	0xbf3a0361	-0.72661406
157	0x3ee1d81b	0.44110188
158	0x3f8b8e56	1.0902812
159	0xbf1a3be1	-0.6024762
160	0xbebbe1dd	-0.36695758
161	0xbc5a67d2	-0.013330417
162	0xbe6f2e11	-0.23357417
163	0xbf069446	-0.5257
164	0x3f16a48b	0.5884482
165	0xbfa26144	-1.2685933
166	0xbf2d72fe	-0.6775359
167	0xbf16e57e	-0.5894393
168	0x3ffbd828	1.9675341
169	0xbef4e164	-0.4782821
170	0xbebf6445	-0.37381187
171	0x3f86f98f	1.0544909
172	0xbefef4b4	-0.4979607
173	0xbf0b996c	-0.5453098
174	0xbf489a34	-0.78360295
175	0xbef4a93a	-0.4778536
176	0xbf23cbc6	-0.6398281
177	0x3f51a333	0.8188965
178	0x3f00d430	0.5032377
179	0xbeef1837	-0.46698162
180	0xbef832e1	-0.48476318
181	0xbf05bae7	-0.52238315
182	0x3f29a522	0.662676
183	0xbec56b8a	-0.38558608
184	0xbf8fcb7b	-1.1233972
185	0xbf0ce81c	-0.5504167
186	0xbef1e932	-0.47248226
187	0xbed6a912	-0.41925865
188	0xbd654933	-0.05597801
189	0xbebecc65	-0.37265316
190	0xbf561a02	-0.83633435
191	0xbf2b249f	-0.66852754
192	0xbe9b173e	-0.3029117
193	0x3fb453fa	1.4088128
194	0x3f2a60ca	0.6655394
195	0xbed20cd8	-0.41025424
196	0xbee6718b	-0.450085
197	0xbd9d4bdf	-0.07680487
198	0xbe8849c3	-0.26618776
199	0xbed55fdd	-0.416747
200	0xbd9d3d81	-0.076777466
201	0xbf0e0265	-0.55472404
202	0xbf220c03	-0.6329958
203	0xbee64552	-0.44974762
204	0xbf0b0742	-0.5430795
205	0xbed2a1e4	-0.41139138
206	0xbf4efb3e	-0.80852115
207	0xbf5048e6	-0.81361234
208	0x3e888ff2	0.26672322
209	0x3ff394e7	1.9029816
210	0x3f48834d	0.7832535
211	0xbf431b14	-0.7621319
212	0xbed5facc	-0.41792905
213	0xbf4e2b64	-0.8053496
214	0xbf0491bd	-0.5178488
215	0xbece4867	-0.40289614
216	0x3da2a6dd	0.07941983
217	0xbef28c8b	-0.4737285
218	0xbdb55377	-0.0885381
219	0x3fb56966	1.417279
220	0xbf803aa5	-1.0017897
221	0xbf738a28	-0.95132685
222	0xbf5945a2	-0.84871876
223	0x3fa013f7	1.2506093
224	0xbf868130	-1.0508175
225	0xbf007adf	-0.50187486
226	0xbee6ad18	-0.45053935
227	0xbec3731c	-0.3817376
228	0xbf2ad3a6	-0.667292
229	0xbf2fd2cb	-0.6868102
230	0xbf6adbe4	-0.91741776
231	0x3faf3d83	1.3690647
232	0xbec8b9e3	-0.3920432
233	0x3c8d5ec7	0.017257107
234	0xbfad150c	-1.3522048
235	0xbf0a1b69	-0.53948075
236	0xbd5e89a1	-0.054330472
237	0xbdfe6019	-0.12420673
238	0xbf5a4059	-0.85254437
239	0x3f14d941	0.58144003
240	0xbee0ff7c	-0.4394492
241	0xbe13190e	-0.14365026
242	0x3d06bbb0	0.032893836
243	0x3bdeaf52	0.006795802
244	0xbecb83d2	-0.39749008
245	0xbe907a3a	-0.2821825
246	0x3f0aeac6	0.54264486
247	0xbe184e49	-0.14873613
248	0xbea2bb0b	-0.31783327
249	0x3f730d87	0.94942516
250	0xbf86901c	-1.0512729
251	0xbec540d5	-0.38526025
252	0xbf15dd79	-0.58541065
253	0x3e4a285a	0.19741955
254	0xbf7f9ac5	-0.99845535
255	0xbea3bed4	-0.31981528

fc3.bias f4 [4]
0	0xbe66982a	-0.22518983
1	0x3e2090a1	0.15680172
2	0x3e24e526	0.16103038
3	0x3e082f7e	0.13299367
