model/cart_pole/agent_0/actor_params.pkl (torch, 45377 bytes, 6 tensors)

fc1.weight f4 [100, 4]
00000000: 2aef 373d 1408 39be 2fcc 563e d5e7 453d
00000010: 4690 133d 2e82 ad3d 45b1 053d 7b4c 9dbe
00000020: 80bb d63d dd92 86be 26ed 0cbe 1691 9fbd
00000030: 8188 7abe 650c 073f 3667 d53d 7e0c 383e
00000040: 1260 bbbd a4da 4c3e c01d 413f 8767 273f
00000050: 89f5 89be 7b7f 713e 502b bdbd 3e91 693e
00000060: 4527 053e 84f4 0ebe 7f2f b4bf a599 fcbe
00000070: 8eb2 fe3d 8792 bcbe 316e ccbf 13b9 0abf
00000080: 7631 4ebd 8c1b c33e dbb0 05bb 185d 5ebe
00000090: 312f 373e dba9 37be d2b3 cdbe 549e 89be
000000a0: a5c9 52bf 2698 0bbf 5709 2ebf e677 babe
000000b0: fa36 00be 982c 1a3f 190a 2f3f 19b3 b63e
000000c0: 4023 80be a35d ce3e ff3b af3f 09f7 f53e
000000d0: d4de 393f 45c6 593e fe49 dbbe 3a06 5c3d
000000e0: 9eba 54be 6ed6 093f 275f 953d 92b1 843e
000000f0: 0820 0c3e 4898 75be 0825 933f e28e 133f
00000100: b9c9 6e3e 5495 0cbe 9708 a33d f332 c8be
00000110: 10ac 7ebe d430 cb3e ac66 91be 54b1 d33e
00000120: 569a 1ebf c406 87bd f8e3 d5be 3622 40be
00000130: 2caa 3fbd 08a3 35bf bbff 8bbf 86f4 06bf
00000140: c2d5 8e3e ebc7 f0bc 69c4 afbe 129b 3c3e
00000150: bfbc 15be 5e83 d53c 36da 1c3f f134 e23e
00000160: 7cf4 2ebe 1c17 93be 9c35 c5be 1a62 77be
00000170: 745b a63e 4d03 723e 8b24 983f be88 903e
00000180: 057a 09be bbac 57be 7831 0bbf 6a42 0cbe
00000190: 4139 52bf f32f 893e d4b5 f13e c6b5 40bc
000001a0: 8385 463e b193 d43e 4a55 b33e 67de 9f3e
000001b0: c30a 42bf 576f cabd 45de 653f 5fe1 69be
000001c0: c984 22be be5f 87be ba85 bcbf fc71 6fbe
000001d0: 73b3 6bbe 3242 173f e5b8 423e 8100 883e
000001e0: b617 ce3e 63f1 923e 818a 2c3f 11f0 b93e
000001f0: d1ad b43e 1326 91be 66c6 9bbe 27fb 903e
00000200: 7d59 f4be 5f3d ddbe 084f ef3c fb44 65bd
00000210: 948c 47bf 0cb5 bdbe 3a55 85be 9f11 a63e
00000220: 2f36 c6be f15f 11bf dd54 3ebe 984b d3be
00000230: 815e a5be 7acb 143e 66e1 8a3e e8cb 173e
00000240: ccb2 3cbe 150d e63e d395 06be f36c c93e
00000250: ffdc 443f 15b2 343d e0d7 bdbe 5feb 62bd
00000260: 4239 5abe c1db 91be ba1d acbf c662 cebe
00000270: f306 8ebe 9971 cd3e 9ad7 b53f 2ed4 ea3e
00000280: 169e e4be 709f 30be 2520 c0bf d4c5 f4be
00000290: fa7c b93e e5ba 933e 451b 21be 0071 f73d
000002a0: d9b9 57bd b633 4dbe f79a dcbe f193 45bd
000002b0: 7ae2 713e 2347 82bd b79a 03bf 64f0 fc3c
000002c0: c0e0 2ebf 7ae0 a23e 6923 a43f 56fc 8b3e
000002d0: 8213 6fbe 194d a43d 3a06 383e f971 9f3d
000002e0: cdf7 19bf 6a0e b1be 56be 3b3d 73ca 48be
000002f0: 51f7 ab3e ec89 c73e a341 b73e c74a e3be
00000300: b3fb 163f e865 aabd 6aa6 3dbf 53ff dabe
00000310: d050 0b3d 5422 093f 56fb c63f 5ff2 f63e
00000320: d217 a5be 6153 16bf ba42 91bf 209a edbe
00000330: b7a2 3fbe bd0d f83e a1a2 b23e a5b7 1cbe
00000340: 94f5 d9bc cccd d5be f95d babf 18a5 b1be
00000350: 649f 2cbf 03b5 03bf cdb8 98bf f0bf bdbe
00000360: 0cf8 0e3e d19c 353e a155 483f fc1d 983e
00000370: 02df cf3d 5870 13be b702 9f3d 4088 223e
00000380: 17cf a3be 751d 873e 1b56 593f c68e ce3e
00000390: b37e 5f3e 1fd8 e2bd 635b 01be 6245 433c
000003a0: fb77 993e 21b2 8a3d c430 123f 1acc 3f3d
000003b0: cb37 30be b333 2bbe 0833 edbe 5666 35be
000003c0: d2fb afbe 9f35 80be e2b8 c8bf 440d 99be
000003d0: b796 723e 6c5b a93e f70d b83e 0893 6a3e
000003e0: 5759 25bf 5c74 0bbf d2e8 4cbf c873 c2be
000003f0: 3ed7 e8be 2f95 37bf c8fe 89be 92d7 ffbe
0.04490582 -0.18069488 0.20976327 0.048316795 0.03602626 0.084720954 0.03263976 -0.30722412
0.104849815 -0.26283923 -0.1376234 -0.07791345 -0.24466135 0.5275329 0.104200765 0.17973515
-0.09149183 0.2000528 0.7543602 0.65392345 -0.2694514 0.23583786 -0.09236777 0.22809312
0.13003261 -0.13960463 -1.4076995 -0.4933597 0.124364 -0.36830541 -1.5971128 -0.5418865
-0.05034014 0.38106954 -0.0020399604 -0.217152 0.17889096 -0.17935888 -0.40176255 -0.26878607
-0.82338935 -0.54529035 -0.67983 -0.364196 -0.12520972 0.60224295 0.6837478 0.35683516
-0.25026894 0.40305814 1.3690184 0.48040035 0.72605634 0.2126704 -0.4282989 0.053716876
-0.20774314 0.5384282 0.072935395 0.25916725 0.13684094 -0.23983872 1.1495676 0.57639897
0.23319139 -0.13728839 0.07960623 -0.3910137 -0.24870324 0.3968569 -0.28398645 0.41346228
-0.6195425 -0.06593087 -0.4177549 -0.1876305 -0.046793148 -0.7095189 -1.0937418 -0.52716863
0.2789746 -0.029392203 -0.34329537 0.1841853 -0.14622782 0.026063617 0.61270463 0.44181016
-0.17085451 -0.2872857 -0.38517463 -0.24158517 0.32491648 0.23634072 1.1886152 0.28229326
-0.13425453 -0.21061985 -0.5437236 -0.1369721 -0.8211861 0.26794395 0.47209036 -0.011762088
0.19386868 0.4151893 0.35026008 0.31224367 -0.7579767 -0.09884518 0.8979228 -0.22839878
-0.15870966 -0.26440233 -1.472831 -0.23383325 -0.23017673 0.5908538 0.19015844 0.26562884
0.40252465 0.28699788 0.6739884 0.3631597 0.3528886 -0.2834936 -0.30424803 0.28316614
-0.47724524 -0.43210885 0.02921249 -0.055973988 -0.7794888 -0.3705219 -0.26041585 0.3243532
-0.38713214 -0.5678702 -0.1858706 -0.4126861 -0.32298663 0.14530745 0.2712509 0.14823878
-0.1842758 0.44931856 -0.13143091 0.39340934 0.76899713 0.044115145 -0.37078762 -0.05540025
-0.21310905 -0.2848797 -1.3446572 -0.40309733 -0.27739677 0.4012573 1.4206421 0.45865005
-0.4465186 -0.1724832 -1.500981 -0.4780718 0.36228162 0.28853527 -0.15733059 0.120821
-0.052667473 -0.20039257 -0.4308698 -0.04823679 0.2362155 -0.063612245 -0.5140795 0.030876346
-0.6831169 0.31811887 1.2823306 0.27340955 -0.23347285 0.08022518 0.17971125 0.077854104
-0.6014374 -0.3458131 0.045835815 -0.19608478 0.33587125 0.38972414 0.35792264 -0.44392988
0.5897781 -0.08320218 -0.7408205 -0.42772922 0.034012616 0.53568006 1.5545452 0.4823179
-0.32244736 -0.58720976 -1.1348488 -0.4640665 -0.18714415 0.4844798 0.348897 -0.1530443
-0.026606359 -0.41758573 -1.4559928 -0.3469627 -0.6743071 -0.51448077 -1.1931397 -0.370605
0.1396181 0.17735602 0.7825566 0.29710376 0.10149957 -0.14398324 0.0776419 0.15872288
-0.31993935 0.2638966 0.8489701 0.40343302 0.21825676 -0.11076378 -0.12632518 0.011918398
0.2997435 0.06772257 0.5710566 0.046825506 -0.17208783 -0.1671894 -0.46327996 -0.1771482
-0.3437181 -0.2504091 -1.5681422 -0.29892933 0.23690306 0.33077562 0.35948154 0.2290765
-0.64589447 -0.54474425 -0.80042756 -0.3797896 -0.45476717 -0.7171201 -0.26952195 -0.49969155

fc1.bias f4 [100]
00000000: 2e8a e3be 1025 1a3f 2b51 cc3e 0e10 413f
00000010: d583 1dbf ba33 223f 43c6 93be b11f e6be
00000020: ea9b 433f ff79 ea3e 27e8 eebd a5f0 a3be
00000030: c41c e9be a622 6e3d ab54 ef3e a6ce 77be
00000040: 20d1 153f d522 243f b095 93be 152f 44bd
00000050: 4811 343f 1937 15bf 5851 3a3f 9d2f 47be
00000060: 29ae 0c3f 22db c03c 06eb 023f 81ef f13e
00000070: b52d 45be 306d 3f3f ed48 babe b7f5 413f
00000080: 0b87 f93e a955 1c3e 7667 92bd daa4 453f
00000090: d6d7 fb3e 6c3d dfbd e979 f0be a7ac 05bf
000000a0: 4254 a1be e229 7f3d fc1d 103f bab9 133f
000000b0: e494 9abe 59df 0f3f 9c41 8a3e 2624 e73e
000000c0: 18e1 83be f8a5 98be ccb5 24bd 58cf 093f
000000d0: a2dc 49bd fd93 b5bd 7f2d bb3e c9ce 0d3f
000000e0: 9535 9cbe 7689 c23e 8752 9dbe 9ed1 3a3f
000000f0: 326e 2d3f be92 073f a25d 12be 3e07 a93e
00000100: acdc 033f 1b7a c2be 47ce 423f 04f8 e43c
00000110: 9ff6 3dbe 22f3 ae3e 1d33 92be 9d2b e53e
00000120: efac 1c3f b0bd b8be 3d09 993e 2a7d bcbd
00000130: fdab 35be fe06 5b3e f41a 413f e307 af3e
00000140: 0572 5b3e 77fd 3d3f 3a95 fa3e 0100 2c3f
00000150: 1dc5 5fbe f17c 123f e919 2a3f b975 0f3f
00000160: 7bd6 e5bd 0d54 3d3f f8ff 333e 6bec 023f
00000170: 502e e2be 516e c0be e48e 1cbd 3f0f 1ebf
00000180: a102 d7be ae23 d8be 1f3c 02bf dc75 9d3d
-0.4444136 0.602128 0.39905676 0.7541512 -0.61529285 0.6336018 -0.288622 -0.44946054
0.7640978 0.457962 -0.11665373 -0.32019535 -0.4552976 0.058138512 0.46744284 -0.24199924
0.58522224 0.6411565 -0.2882514 -0.047896463 0.7033887 -0.582872 0.7278037 -0.19451757
0.5495325 0.02354199 0.5113987 0.4725304 -0.19255717 0.7477598 -0.36383763 0.75765556
0.48735842 0.15267052 -0.0714864 0.7720467 0.49188107 -0.10900387 -0.4696801 -0.5221657
-0.31509596 0.062295802 0.5629575 0.5770527 -0.3019172 0.56200176 0.2700318 0.45144767
-0.2575767 -0.29814124 -0.040212438 0.53832006 -0.049282677 -0.08866117 0.36558148 0.55393654
-0.3050963 0.379955 -0.30727026 0.729761 0.6774627 0.52958286 -0.1429353 0.33013338
0.51508594 -0.37983784 0.76096004 0.027950294 -0.1855111 0.3416987 -0.2855462 0.44759837
0.61201376 -0.3608222 0.2988986 -0.09203561 -0.1774139 0.21389386 0.7543175 0.34185705
0.21430214 0.7421488 0.48941976 0.67187506 -0.21852536 0.57221895 0.66445786 0.56039006
-0.112225495 0.73956376 0.17578113 0.51141995 -0.4417596 -0.37584165 -0.03822221 -0.61742014
-0.41994193 -0.4221472 -0.5087299 0.076884955

fc2.weight f4 [100, 100]
00000000: 26c3 983d a467 713e 1560 083f 4e56 203d
00000010: 68a2 94bf 90fe 7a3e 9a72 a33d 87e5 de3e
00000020: 6def 843d d3b5 e63e 3da4 79bd 2913 a3bf
00000030: 8740 65c0 65b9 c43d c756 a6be d9f8 14bf
00000040: 0126 8a3e 4dad b93e 3809 a0be ad30 e13e
00000050: e0d4 ec3e 5498 ccbd db6e 3a3e 8003 58bf
00000060: df38 9e3e 0cad 76bd d1c9 09be 1994 5dbe
00000070: 5e34 0e3f 48a2 e13a fb62 c0bd 422d 043f
00000080: fdfc 023f 854e f9bd 0cae 9abc dcb6 393e
00000090: 6c9d d03d b511 3bbe 4868 75bc 12d1 86bf
000000a0: cc88 06bc f0cb 503e 0e77 bf3e 2abf e43e
000000b0: 66bf 45bf d4fc 2b3e ea68 d13e 9f8a 0d3e
000000c0: 8614 323d 7e4f 14c0 89e4 ad3e 8210 19bd
000000d0: 253e 363f a259 f33d 51ee 5fbf f573 a2be
000000e0: 0e15 71bf e4f0 033f f519 a63e a5ec 673e
000000f0: 3568 2c3e aa1d 59bc dfde a93e 50fc 44be
00000100: 846f fbbe 7c3c 69c0 e3db 293e 4b20 cabe
00000110: 8498 793e b960 493e 978e 4d3d d40d f03e
00000120: 570e 253f 061f f5bd 88ce 173e 6876 0e3e
00000130: d800 96be 853c ccbd cd7b 053e 004d a7bd
00000140: e938 90bd 2e11 da3e c3a2 31bd abd3 823e
00000150: 5cdb 91be 8e57 323e dbd9 0d3f 010f 073d
00000160: 0e63 a3bf 23fb 383e e105 f43e 389a 973d
00000170: 9746 8d3e 2c73 353d 2d31 64be d65f 1abe
00000180: f353 153e 17c2 7fbf d1d3 303d 20b3 dfbe
00000190: cd3d ce3e ee7a 6f3e 56d7 8b3e af83 8d3e
000001a0: 4106 95be adc6 6c3e 130a 5abe 8f48 3dbf
000001b0: 3797 203e 0fd3 7b3e 92e8 0cbe 4514 063f
000001c0: 5834 94be 9d6a ffbd bb5f 473e 1ab2 a9bd
000001d0: a1d3 be3d 17c1 333e 5532 923e 8530 c4be
000001e0: a1be f33d 3903 4dbe 81da 8f3e 3223 aabe
000001f0: a2aa 953e fc97 0abe 8a87 953d c0f2 a93e
00000200: 39e0 13bf 946e 8f3e c50e b6be 4f49 913e
00000210: 40f0 453e 59a7 7a3c b759 c6bd 6eb1 2d3e
00000220: 48d3 583e 0d1f d93d 0baf 05be eed7 56bf
00000230: 6e61 bebd 8710 2cbc df80 9a3e 6fcc ff3d
00000240: bd8f 3cbf 4ab1 523e 9ef8 a33e f225 0a3e
00000250: e883 cdbd ea8a 0abf 8978 b6be ac19 9e3e
00000260: 1153 14bf 7b89 19bc 57d9 53be d45a 333e
00000270: e85c 05be f6b5 8e3e 0ef7 f2be 9694 9b3e
00000280: dc39 a1bd 9c8e 4d3e 2738 bbbe 03ae 7b3e
00000290: af24 d43d 689a cdbe 6195 8e3d c4fe babe
000002a0: 1a80 8ebe c4a1 533e 62d9 c0be 26b1 8a3e
000002b0: 2181 853e 29fc 2ebe 3428 3f3e 4070 47be
000002c0: da13 883d cf63 3e3e add1 823e 72ca 643e
000002d0: 0e62 883e 689a 9c3e b2be 093e e7a4 4f3e
000002e0: ae70 97be 2e8e 863e d549 973e f46b 123e
000002f0: 2246 e0be bb9c da3d 32e4 e8be e801 173e
00000300: 4252 03bf 7e1d bfbe 722b 1dbe 8cc2 ecbd
00000310: d775 5abe edf6 9dbe 3fe7 e2bd ef80 8abe
00000320: 7e84 de3e 7add 2b3e c61c b53e 8b1c 883e
00000330: 7ad0 debe 4b82 b63e 6bab a8bf 4af4 bfbf
00000340: 6fc2 2a3e bf8a 943e 9eae a4bd 5bc0 143f
00000350: 2a14 3ebe 9a6b a6be a78d a93e de52 24be
00000360: f7a9 373d a1de ca3e 6c93 b43d 04fb 27bf
00000370: 2167 a03e f08f 88be 7047 9f3e 2738 9fbe
00000380: 73af e13e 1b96 52bd e0d4 1c3e a304 863d
00000390: 2b91 7cbf f4bf e43d c784 d3be 514e 2b3e
000003a0: dc35 a83e c19b 2b3d e949 30be 3831 8e3e
000003b0: 4311 9c3e 4838 173e 9720 46bf 9b1e 5cbf
000003c0: 0981 dfbe c40e 31be ccd3 d03e 7afa 873e
000003d0: c26f 48bf e9c8 783e e32b cd3e 00a0 803c
000003e0: d610 b0be 0105 0bbf bcef 00bf 0a4a 693e
000003f0: ceb3 85bf 4314 733d 300f 65be 49a3 8d3d
0.074590966 0.23574692 0.5327161 0.039144807 -1.1612062 0.2451117 0.07980843 0.4353449
0.06490979 0.45060596 -0.060947645 -1.2740222 -3.5820634 0.09605674 -0.3248808 -0.5819221
0.2698212 0.3626503 -0.31257033 0.4398245 0.4625616 -0.09989992 0.1820635 -0.8438034
0.30902764 -0.060223624 -0.13455893 -0.21638526 0.55548656 0.0017214501 -0.09393879 0.5163156
0.5116728 -0.121731795 -0.01888182 0.18136162 0.10186276 -0.18268473 -0.014978476 -1.0532553
-0.008211326 0.20390296 0.3739552 0.44677097 -0.77245176 0.16795665 0.40900356 0.13822411
0.043476604 -2.3173518 0.3396342 -0.03736926 0.71188575 0.118823305 -0.87473017 -0.31729093
-0.9417275 0.51539445 0.3244168 0.22648866 0.16836627 -0.013251701 0.3317785 -0.19236875
-0.49108517 -3.6443167 0.16587786 -0.39477763 0.24374586 0.19665803 0.050184812 0.4688555
0.64475006 -0.11968808 0.14824879 0.13912356 -0.2929752 -0.09972481 0.13035508 -0.081689835
-0.07042105 0.42591232 -0.043368112 0.25552115 -0.2848767 0.17416212 0.55410546 0.032973293
-1.2764604 0.18064551 0.47660735 0.07402462 0.27592918 0.04429929 -0.22284384 -0.15075621
0.14582805 -0.9990553 0.043170754 -0.4369135 0.40281525 0.23386738 0.27312726 0.2763953
-0.29106334 0.23122664 -0.21292906 -0.7393884 0.15682684 0.24592231 -0.13760594 0.5237468
-0.28946185 -0.12471507 0.19470112 -0.08285923 0.09317709 0.17554127 0.28554025 -0.38318267
0.11901594 -0.2002076 0.28096393 -0.33229977 0.29231745 -0.1353454 0.07301243 0.33193016
-0.5776401 0.28014052 -0.35558143 0.28376243 0.1932993 0.015298688 -0.096850805 0.16962215
0.21174347 0.106016256 -0.13055055 -0.8392323 -0.09295927 -0.010501987 0.30176446 0.124901645
-0.7365683 0.20575443 0.32025617 0.13491037 -0.10034925 -0.54118216 -0.35638836 0.3087896
-0.5793925 -0.009371157 -0.20688377 0.17515117 -0.13023722 0.278732 -0.47454113 0.303868
-0.07872364 0.20073932 -0.36566278 0.24578099 0.10358559 -0.40156865 0.069620855 -0.36522496
-0.2783211 0.20667177 -0.3766585 0.2708828 0.2607508 -0.17088379 0.1866768 -0.19476414
0.066444114 0.18592761 0.25550595 0.22342852 0.2663731 0.30586553 0.1345165 0.20277749
-0.29578155 0.2628035 0.29548517 0.14298993 -0.43803507 0.10674425 -0.454866 0.14746821
-0.5129739 -0.37327188 -0.15348604 -0.11560544 -0.21334015 -0.30852452 -0.11079263 -0.27051494
0.4346046 0.16783705 0.35373515 0.26584277 -0.4351843 0.3564628 -1.3177313 -1.4996426
0.16675733 0.29012105 -0.08041118 0.5810601 -0.1856238 -0.32503968 0.33115885 -0.16047236
0.044839825 0.39622977 0.08817181 -0.65617394 0.3132868 -0.26672316 0.3110919 -0.31097528
0.4407917 -0.051412683 0.1531558 0.06543853 -0.9865901 0.11169425 -0.4131224 0.16729094
0.3285359 0.041896585 -0.17215694 0.27771926 0.3048192 0.14767563 -0.7739348 -0.859842
-0.43653134 -0.17290789 0.40786588 0.26558286 -0.7829553 0.24295391 0.40072545 0.015701294
-0.34387845 -0.5430451 -0.50365806 0.2278215 -1.0445497 0.059345495 -0.22369075 0.0691591

fc2.bias f4 [100]
00000000: d2d9 9d3e c156 f93d cea9 9a3e 55b1 aebd
00000010: 75fa 533e dd87 1a3e 932c 073d b598 133e
00000020: 8c6d 993e 8a35 b2bc 1f40 a93d b3b7 743e
00000030: c9ae c2ba 6329 8abc 9e1e 223e 7752 93bd
00000040: 97bf 6b3e 5665 0ebe 0736 613e fdd3 393e
00000050: fa4a 013b 2932 883e 1ece 7ebc 393d 693e
00000060: 79d7 0dbe 0692 3d3e 93d2 113e 3fd0 843e
00000070: 47ae 1cbd 46ad d1bd e602 e3bd bbb6 933d
00000080: 5210 8a3e 9a95 1bbe 76d2 653e 7281 5c3e
00000090: a8fa 493e bda6 c9bd c3c6 1b3e 72d3 903e
000000a0: a4c0 10bb 28d7 49bd f01e 1fbe 1e6e 57bd
000000b0: 7af6 0bbd ffce 413e 4d42 ec3c e944 953d
000000c0: 33e6 983e 116d 923e 1c4f 833e ccc4 7c3e
000000d0: 9af4 a93e 0e74 543e c186 1d3e bdf4 533d
000000e0: 5151 613e aa3e 02be 17c2 e1bc 92c3 2c3e
000000f0: eea7 af3d 72cf cb3e 6ea0 5c3e 3a00 853e
00000100: f602 c5bd c672 8a3e b1fc 6d3e d52d 763e
00000110: 27a7 ba3e 4d32 1e3e 763e 2f3e cb70 9e3d
00000120: 5ba8 84bd 8426 2ebe 8015 8bbe b217 e43d
00000130: 48c5 05be 7ad8 58bd b8ed 863e eaa3 433e
00000140: 2ba8 753d e003 913e 4127 80be 1480 aa3e
00000150: c934 813e 4bcb 1a3e 210f b63c 9b3e 8ebd
00000160: 1894 7a3e 705d 8e3e 2e76 843e 8392 3b3e
00000170: b47b cb3c 3076 843e ed54 8cbd 7fc3 c43d
00000180: 637e 5a3e 467b 503e 4b15 a93d 43af 53bc
0.30830246 0.1217475 0.30207676 -0.08529917 0.2070101 0.1509089 0.033001494 0.14413722
0.2996639 -0.021754045 0.08264183 0.238982 -0.0014853115 -0.016865438 0.15831992 -0.07193463
0.23022304 -0.13905844 0.21993266 0.18147273 0.0019728527 0.2660077 -0.015552072 0.22777261
-0.13851728 0.18512735 0.14240484 0.2594013 -0.03825214 -0.102381274 -0.11084537 0.072125874
0.26965576 -0.15193787 0.22443566 0.21533754 0.19724524 -0.09846256 0.1521254 0.2828632
-0.002208748 -0.049277455 -0.15539145 -0.05259525 -0.034170605 0.18926619 0.028840208 0.07288534
0.29863128 0.28598836 0.25646293 0.24684447 0.3319443 0.20747396 0.15383436 0.051747072
0.22003676 -0.12719217 -0.02755837 0.16871479 0.08576952 0.39806706 0.21545574 0.25976735
-0.096197054 0.2704069 0.23240925 0.24040921 0.36455652 0.15448876 0.1711367 0.07736357
-0.06477424 -0.1700688 -0.2716484 0.11137332 -0.13063538 -0.052940823 0.2635324 0.19105497
0.05997483 0.2832327 -0.25029948 0.3330084 0.25235584 0.15116613 0.02222401 -0.06945535
0.24470556 0.27805662 0.25871414 0.18317609 0.02483926 0.2587142 -0.06852136 0.096076004
0.21337275 0.20359525 0.082560144 -0.012920204

fc3.weight f4 [2, 100]
00000000: b052 58be 7c25 d93e 0c9a da3e 0e57 4c3f
00000010: 4ffe 1a3f 52e2 0dbf 5a32 773f e2a1 9fbe
00000020: df12 ed3e e374 77bf bae9 0ebd a1bb f93e
00000030: f92d 3abd f082 48bf 8f79 52be 0786 0a3d
00000040: 6fa4 fb3e 5573 2dbf e6c8 d83e 465c 133f
00000050: 2b12 0f3d 4b28 4dbf 586c a9bd a00c 003f
00000060: 6345 88bf 7d68 413f c897 e13e 98fe cf3e
00000070: dbd0 943d fab3 993c f75c 91bf e0e8 993d
00000080: 7814 013f ac09 41bf deed 0e3f e714 3e3f
00000090: 4588 fa3e 3232 9abd 8d14 1d3f 1df1 d83e
000000a0: 2d4b 213d c372 babe 4344 88bf 1260 9fbd
000000b0: 8874 4fbf f46f ff3e 02e6 8bbd 11c3 9abf
000000c0: cf4a e33e c516 023f ee8e c8be f697 033f
000000d0: 3005 f93e 0474 2a3f c08a 21be 0543 4ebd
000000e0: 3358 103f 9313 86bf fa16 043f 1e3a 093f
000000f0: 416b a7bd 4470 34bf 970f 0f3f 252e 133f
00000100: a659 96bf db71 083f 2062 023c 5e94 f93e
00000110: 2c3c ee3e b35e 7bbf 0d48 e33e 8336 c5bd
00000120: ca78 8d3d e157 47bf b954 213f e4f0 093f
00000130: 3662 55bf 9a7b e93c 19af 143f 2bb8 de3e
00000140: 6e90 babd ce70 e53e 96c4 373f 4724 c9be
00000150: c928 e13e 73a2 0b3f 6e28 42bf 609f dc3e
00000160: 83a5 173f 1f34 143f 3998 063f c124 e83e
00000170: 6b10 493d ea3f b43e 7502 58bf ef81 cfbe
00000180: bbeb ea3e 113b 033f 6c6d ec3b 7cd4 9bbe
00000190: d635 63bf 5339 083f ee62 773f dbf7 33bf
000001a0: fa5a e23e 6394 43be c141 243f 3dd0 c23e
000001b0: 6523 e73e 7da1 4dbf e2b6 62bd b744 df3e
000001c0: 387a 09be 2143 efbe 718c 19bf 48de c23d
000001d0: 6cfa e13e f21e 9fbf c98f e73e e929 073f
000001e0: 625b b4bd 60c1 1bbe 6492 4b3d f052 c23e
000001f0: 6299 e3be 6b23 ed3e e415 023f afc4 f23e
00000200: 342a 38bc f95e 66bc 89c2 84be 875a 973c
00000210: b3b1 c93e d957 06bf 48ed 033f 5efa 073f
00000220: b055 d43e 7aba 66bd d974 0a3f 02cd dc3e
00000230: af8b b0bf 4bad dcbe 572c 673c f670 b8ba
00000240: 2677 5ebe 0572 6e3f d043 9b3d 9f57 57bf
00000250: 3d2b d53e d2ee c93e cb71 063f 3ca7 083f
00000260: 66b9 393f 4edd 023f 338f 30bf 74d0 bf3a
00000270: 59e0 1b3f 4a5e 82bf 290e 7ebf 6f62 173f
00000280: 1316 dd3b f452 f03d 5247 173f 77c0 cb3e
00000290: f309 8c3d ac73 e03e d8db 38bf 587b 453f
000002a0: 5b28 263f 288c 4bbf 6564 4ebf 42e7 92bd
000002b0: df49 6bbc bde0 76be 6b2a 10bf 230c c43e
000002c0: 6fc5 d7be baf2 b13d 7c2c 8dbe f868 043f
000002d0: 19d5 d6bc e3e1 e23e 59fa 2cbf a76c 41bf
000002e0: 4ed1 c63e 0f1c d83e ae17 55bf 65aa 1dbf
000002f0: 7916 1c3f 58a3 573f a450 593f 1f26 073f
00000300: acbe 603d 8766 c73e 754f 63be 798f f93d
00000310: b42d f53e 5179 c13e 0d74 1fbc 8426 81bf
-0.21125293 0.4241141 0.42695653 0.79820335 0.60544294 -0.5542346 0.96561205 -0.31178194
0.4630346 -0.9666273 -0.034890868 0.48775962 -0.045454 -0.78324795 -0.20554183 0.033819225
0.4914889 -0.6775411 0.42340773 0.57562673 0.034929436 -0.8013961 -0.08272618 0.50019264
-1.0646175 0.7555006 0.44061112 0.40623927 0.072663985 0.018762577 -1.1356496 0.075151205
0.5042186 -0.75405383 0.55831707 0.74250644 0.4893209 -0.07529105 0.61359483 0.42371455
0.039378334 -0.3641568 -1.0645832 -0.07781996 -0.8103719 0.498901 -0.0683098 -1.209078
0.44393012 0.50815994 -0.39171547 0.5140375 0.4863677 0.66583276 -0.15775585 -0.050356884
0.5638458 -1.0474724 0.5159756 0.53604305 -0.08174754 -0.70483804 0.55883163 0.57492286
-1.1746109 0.5329873 0.007957965 0.48746008 0.46530282 -0.98191375 0.44390908 -0.09629538
0.06907804 -0.7786847 0.630199 0.53883195 -0.83352983 0.02850132 0.5807968 0.43499884
-0.09109579 0.44812626 0.7178434 -0.3928549 0.4397643 0.5454475 -0.7584294 0.43090343
0.59236926 0.5789203 0.52576023 0.4534054 0.049087923 0.35205013 -0.8437875 -0.4052882
0.45882973 0.51262003 0.0072151925 -0.3043555 -0.8875402 0.5321247 0.9663533 -0.7030007
0.44210035 -0.19099574 0.6416283 0.38049498 0.4514419 -0.80324537 -0.055350192 0.43607113
-0.13425529 -0.46730903 -0.5997992 0.09515053 0.4413637 -1.2431319 0.45226887 0.52798325
-0.088064924 -0.15210485 0.049700156 0.379539 -0.4445296 0.46316084 0.5081465 0.47415683
-0.011240531 -0.014060729 -0.2592967 0.018475784 0.39393386 -0.52477795 0.5153394 0.53116405
0.41471624 -0.05633018 0.54084545 0.4312516 -1.3792628 -0.43100962 0.014109693 -0.0014071751
-0.21725139 0.9314273 0.075812936 -0.84118074 0.4163455 0.39440018 0.52517384 0.5338018
0.7254852 0.51118934 -0.68968505 0.0014634267 0.608892 -1.0185025 -0.99240357 0.5913457
0.006747016 0.11734572 0.590932 0.39795277 0.06837835 0.4383825 -0.72210455 0.7714133
0.6490533 -0.79510736 -0.8062194 -0.07173015 -0.014360874 -0.24109168 -0.56314725 0.3829051
-0.42142817 0.086888745 -0.27573 0.5172267 -0.02622466 0.44312963 -0.675695 -0.75556415
0.38831562 0.42208907 -0.8323926 -0.61588126 0.6097179 0.8423362 0.8488867 0.52792543
0.05486934 0.3894541 -0.22198279 0.12185568 0.4788643 0.3778787 -0.0097322585 -1.0089879

fc3.bias f4 [2]
00000000: 5a4c d13d 4ef1 3b3e
0.10219641 0.18353769
